…
[2016-05-07 19:13]     config 'final_dropout': 0.248786569485 (0.5)
[2016-05-07 19:13]     config 'words2vec_bin': None (None)
[2016-05-07 19:13]     config 'words2vec_txt': None (None)
[2016-05-07 19:14]     config 'rsenses_imp_loss':  (categorical_crossentropy)
____________________________________________________________________________________________________
Layer (type)                       Output Shape        Param #     Connected to                     
====================================================================================================
arg1_ids (InputLayer)              (None, 100)         0                                            
____________________________________________________________________________________________________
arg2_ids (InputLayer)              (None, 100)         0                                            
____________________________________________________________________________________________________
conn_ids (InputLayer)              (None, 10)          0                                            
____________________________________________________________________________________________________
punc_ids (InputLayer)              (None, 2)           0                                            
____________________________________________________________________________________________________
shared_emb (Embedding)             multiple            1317540     arg1_ids[0][0]                   
                                                                   arg2_ids[0][0]                   
                                                                   conn_ids[0][0]                   
                                                                   punc_ids[0][0]                   
____________________________________________________________________________________________________
gru_1 (GRU)                        (None, 100, 4)      420         shared_emb[0][0]                 
____________________________________________________________________________________________________
gru_11 (GRU)                       (None, 10, 4)       420         shared_emb[2][0]                 
____________________________________________________________________________________________________
gru_16 (GRU)                       (None, 2, 4)        420         shared_emb[3][0]                 
____________________________________________________________________________________________________
gru_6 (GRU)                        (None, 100, 4)      420         shared_emb[1][0]                 
____________________________________________________________________________________________________
timedistributed_1 (TimeDistributed)(None, 100, 30)     0           gru_1[0][0]                      
____________________________________________________________________________________________________
timedistributed_10 (TimeDistributed(None, 10, 30)      0           gru_11[0][0]                     
____________________________________________________________________________________________________
timedistributed_11 (TimeDistributed(None, 10, 30)      0           gru_11[0][0]                     
____________________________________________________________________________________________________
timedistributed_12 (TimeDistributed(None, 10, 30)      0           gru_11[0][0]                     
____________________________________________________________________________________________________
timedistributed_13 (TimeDistributed(None, 2, 30)       0           gru_16[0][0]                     
____________________________________________________________________________________________________
timedistributed_14 (TimeDistributed(None, 2, 30)       0           gru_16[0][0]                     
____________________________________________________________________________________________________
timedistributed_15 (TimeDistributed(None, 2, 30)       0           gru_16[0][0]                     
____________________________________________________________________________________________________
timedistributed_16 (TimeDistributed(None, 2, 30)       0           gru_16[0][0]                     
____________________________________________________________________________________________________
timedistributed_2 (TimeDistributed)(None, 100, 30)     0           gru_1[0][0]                      
____________________________________________________________________________________________________
timedistributed_3 (TimeDistributed)(None, 100, 30)     0           gru_1[0][0]                      
____________________________________________________________________________________________________
timedistributed_4 (TimeDistributed)(None, 100, 30)     0           gru_1[0][0]                      
____________________________________________________________________________________________________
timedistributed_5 (TimeDistributed)(None, 100, 30)     0           gru_6[0][0]                      
____________________________________________________________________________________________________
timedistributed_6 (TimeDistributed)(None, 100, 30)     0           gru_6[0][0]                      
____________________________________________________________________________________________________
timedistributed_7 (TimeDistributed)(None, 100, 30)     0           gru_6[0][0]                      
____________________________________________________________________________________________________
timedistributed_8 (TimeDistributed)(None, 100, 30)     0           gru_6[0][0]                      
____________________________________________________________________________________________________
timedistributed_9 (TimeDistributed)(None, 10, 30)      0           gru_11[0][0]                     
____________________________________________________________________________________________________
merge_1 (Merge)                    (None, 100, 30)     0           shared_emb[0][0]                 
                                                                   timedistributed_1[0][0]          
____________________________________________________________________________________________________
merge_10 (Merge)                   (None, 10, 30)      0           shared_emb[2][0]                 
                                                                   timedistributed_10[0][0]         
____________________________________________________________________________________________________
merge_11 (Merge)                   (None, 10, 30)      0           shared_emb[2][0]                 
                                                                   timedistributed_11[0][0]         
____________________________________________________________________________________________________
merge_12 (Merge)                   (None, 10, 30)      0           shared_emb[2][0]                 
                                                                   timedistributed_12[0][0]         
____________________________________________________________________________________________________
merge_13 (Merge)                   (None, 2, 30)       0           shared_emb[3][0]                 
                                                                   timedistributed_13[0][0]         
____________________________________________________________________________________________________
merge_14 (Merge)                   (None, 2, 30)       0           shared_emb[3][0]                 
                                                                   timedistributed_14[0][0]         
____________________________________________________________________________________________________
merge_15 (Merge)                   (None, 2, 30)       0           shared_emb[3][0]                 
                                                                   timedistributed_15[0][0]         
____________________________________________________________________________________________________
merge_16 (Merge)                   (None, 2, 30)       0           shared_emb[3][0]                 
                                                                   timedistributed_16[0][0]         
____________________________________________________________________________________________________
merge_2 (Merge)                    (None, 100, 30)     0           shared_emb[0][0]                 
                                                                   timedistributed_2[0][0]          
____________________________________________________________________________________________________
merge_3 (Merge)                    (None, 100, 30)     0           shared_emb[0][0]                 
                                                                   timedistributed_3[0][0]          
____________________________________________________________________________________________________
merge_4 (Merge)                    (None, 100, 30)     0           shared_emb[0][0]                 
                                                                   timedistributed_4[0][0]          
____________________________________________________________________________________________________
merge_5 (Merge)                    (None, 100, 30)     0           shared_emb[1][0]                 
                                                                   timedistributed_5[0][0]          
____________________________________________________________________________________________________
merge_6 (Merge)                    (None, 100, 30)     0           shared_emb[1][0]                 
                                                                   timedistributed_6[0][0]          
____________________________________________________________________________________________________
merge_7 (Merge)                    (None, 100, 30)     0           shared_emb[1][0]                 
                                                                   timedistributed_7[0][0]          
____________________________________________________________________________________________________
merge_8 (Merge)                    (None, 100, 30)     0           shared_emb[1][0]                 
                                                                   timedistributed_8[0][0]          
____________________________________________________________________________________________________
merge_9 (Merge)                    (None, 10, 30)      0           shared_emb[2][0]                 
                                                                   timedistributed_9[0][0]          
____________________________________________________________________________________________________
gru_10 (GRU)                       (None, 10)          1230        merge_8[0][0]                    
____________________________________________________________________________________________________
gru_12 (GRU)                       (None, 10)          1230        merge_9[0][0]                    
____________________________________________________________________________________________________
gru_13 (GRU)                       (None, 10)          1230        merge_10[0][0]                   
____________________________________________________________________________________________________
gru_14 (GRU)                       (None, 10)          1230        merge_11[0][0]                   
____________________________________________________________________________________________________
gru_15 (GRU)                       (None, 10)          1230        merge_12[0][0]                   
____________________________________________________________________________________________________
gru_17 (GRU)                       (None, 10)          1230        merge_13[0][0]                   
____________________________________________________________________________________________________
gru_18 (GRU)                       (None, 10)          1230        merge_14[0][0]                   
____________________________________________________________________________________________________
gru_19 (GRU)                       (None, 10)          1230        merge_15[0][0]                   
____________________________________________________________________________________________________
gru_2 (GRU)                        (None, 10)          1230        merge_1[0][0]                    
____________________________________________________________________________________________________
gru_20 (GRU)                       (None, 10)          1230        merge_16[0][0]                   
____________________________________________________________________________________________________
gru_3 (GRU)                        (None, 10)          1230        merge_2[0][0]                    
____________________________________________________________________________________________________
gru_4 (GRU)                        (None, 10)          1230        merge_3[0][0]                    
____________________________________________________________________________________________________
gru_5 (GRU)                        (None, 10)          1230        merge_4[0][0]                    
____________________________________________________________________________________________________
gru_7 (GRU)                        (None, 10)          1230        merge_5[0][0]                    
____________________________________________________________________________________________________
gru_8 (GRU)                        (None, 10)          1230        merge_6[0][0]                    
____________________________________________________________________________________________________
gru_9 (GRU)                        (None, 10)          1230        merge_7[0][0]                    
____________________________________________________________________________________________________
merge_17 (Merge)                   (None, 160)         0           gru_2[0][0]                      
                                                                   gru_3[0][0]                      
                                                                   gru_4[0][0]                      
                                                                   gru_5[0][0]                      
                                                                   gru_7[0][0]                      
…
                                                                   gru_15[0][0]                     
                                                                   gru_17[0][0]                     
                                                                   gru_18[0][0]                     
                                                                   gru_19[0][0]                     
                                                                   gru_20[0][0]                     
____________________________________________________________________________________________________
dense_1 (Dense)                    (None, 90)          14490       merge_17[0][0]                   
____________________________________________________________________________________________________
srelu_1 (SReLU)                    (None, 90)          360         dense_1[0][0]                    
____________________________________________________________________________________________________
dropout_1 (Dropout)                (None, 90)          0           srelu_1[0][0]                    
____________________________________________________________________________________________________
dense_2 (Dense)                    (None, 21)          1911        dropout_1[0][0]                  
____________________________________________________________________________________________________
rsenses_imp (Activation)           (None, 21)          0           dense_2[0][0]                    
====================================================================================================
Total params: 1355661
____________________________________________________________________________________________________
[2016-05-07 19:14]     config 'optimizer':  (adam)
[2016-05-07 19:14] initialize weights
[2016-05-07 19:14] prepare snapshots
[2016-05-07 19:14] train model
…
